# YOLOv5 🚀 by Ultralytics, AGPL-3.0 license

nc: 2  # number of classes
depth_multiple: 0.33  # model depth multiple
width_multiple: 0.25  # layer channel multiple
anchors:
  - [ 14.584, 15.632, 20.333, 21.028, 25.824, 25.92 ]  #3/8
  - [ 29.682, 30.56, 34.83, 35.327, 39.305, 40.636 ]  # P4/16
  - [ 50.548, 49.988, 173.42, 236.3, 215.97, 327.15 ] # P5/32

# YOLOv5 v6.0 backbone
backbone:
  # [from, number, module, args]
  [ [ -1, 1, GhostConv, [ 32, 3, 2 ] ],  # 0-P1/2
    [ -1, 1, GhostConv, [ 64, 3, 2 ] ],  # 1-P2/4
    [ -1, 3, C3Ghost, [ 64 ] ],
    [ -1, 1, GhostConv, [ 128, 3, 2 ] ],  # 3-P3/8
    [ -1, 6, C3Ghost, [ 128 ] ],
    [ -1, 1, GhostConv, [ 256, 3, 2 ] ],  # 5-P4/16
    [ -1, 9, C3Ghost, [ 256 ] ],
    [ -1, 1, GhostConv, [ 512, 3, 2 ] ],  # 7-P5/32
    [ -1, 3, C3Ghost, [ 512 ] ],
    [ -1, 1, SPPF, [ 512, 5 ] ],  # 9
  ]

# YOLOv5 v6.0 head
head:
  [
   [[3, 5, 7], 1, Detect, [nc, anchors]],  # Detect(P3, P4, P5)
  ]

